ConformerModel(
  (conv_in): Sequential(
    (0): Conv2d(1, 32, kernel_size=(3, 3), stride=(2, 2), padding=(1, 1))
    (1): ReLU()
    (2): Conv2d(32, 32, kernel_size=(3, 3), stride=(2, 2), padding=(1, 1))
    (3): ReLU()
  )
  (conv_out): Sequential(
    (0): Linear(in_features=640, out_features=360, bias=True)
    (1): PositionalEncoding(
      (dropout): Dropout(p=0.1, inplace=False)
    )
  )
  (encoder_layer): MultiSequential(
    (0): EncoderLayer(
      (self_attn): MultiHeadedAttention(
        (linear_q): Linear(in_features=360, out_features=360, bias=True)
        (linear_k): Linear(in_features=360, out_features=360, bias=True)
        (linear_v): Linear(in_features=360, out_features=360, bias=True)
        (linear_out): Linear(in_features=360, out_features=360, bias=True)
        (dropout): Dropout(p=0.1, inplace=False)
      )
      (feed_forward): PositionwiseFeedForward(
        (w_1): Linear(in_features=360, out_features=1024, bias=True)
        (w_2): Linear(in_features=1024, out_features=360, bias=True)
        (dropout): Dropout(p=0.1, inplace=False)
        (activation): ReLU()
      )
      (norm_ff): LayerNorm((360,), eps=1e-12, elementwise_affine=True)
      (norm_mha): LayerNorm((360,), eps=1e-12, elementwise_affine=True)
      (dropout): Dropout(p=0.1, inplace=False)
      (concat_linear): Sequential()
    )
    (1): EncoderLayer(
      (self_attn): MultiHeadedAttention(
        (linear_q): Linear(in_features=360, out_features=360, bias=True)
        (linear_k): Linear(in_features=360, out_features=360, bias=True)
        (linear_v): Linear(in_features=360, out_features=360, bias=True)
        (linear_out): Linear(in_features=360, out_features=360, bias=True)
        (dropout): Dropout(p=0.1, inplace=False)
      )
      (feed_forward): PositionwiseFeedForward(
        (w_1): Linear(in_features=360, out_features=1024, bias=True)
        (w_2): Linear(in_features=1024, out_features=360, bias=True)
        (dropout): Dropout(p=0.1, inplace=False)
        (activation): ReLU()
      )
      (norm_ff): LayerNorm((360,), eps=1e-12, elementwise_affine=True)
      (norm_mha): LayerNorm((360,), eps=1e-12, elementwise_affine=True)
      (dropout): Dropout(p=0.1, inplace=False)
      (concat_linear): Sequential()
    )
    (2): EncoderLayer(
      (self_attn): MultiHeadedAttention(
        (linear_q): Linear(in_features=360, out_features=360, bias=True)
        (linear_k): Linear(in_features=360, out_features=360, bias=True)
        (linear_v): Linear(in_features=360, out_features=360, bias=True)
        (linear_out): Linear(in_features=360, out_features=360, bias=True)
        (dropout): Dropout(p=0.1, inplace=False)
      )
      (feed_forward): PositionwiseFeedForward(
        (w_1): Linear(in_features=360, out_features=1024, bias=True)
        (w_2): Linear(in_features=1024, out_features=360, bias=True)
        (dropout): Dropout(p=0.1, inplace=False)
        (activation): ReLU()
      )
      (norm_ff): LayerNorm((360,), eps=1e-12, elementwise_affine=True)
      (norm_mha): LayerNorm((360,), eps=1e-12, elementwise_affine=True)
      (dropout): Dropout(p=0.1, inplace=False)
      (concat_linear): Sequential()
    )
    (3): EncoderLayer(
      (self_attn): MultiHeadedAttention(
        (linear_q): Linear(in_features=360, out_features=360, bias=True)
        (linear_k): Linear(in_features=360, out_features=360, bias=True)
        (linear_v): Linear(in_features=360, out_features=360, bias=True)
        (linear_out): Linear(in_features=360, out_features=360, bias=True)
        (dropout): Dropout(p=0.1, inplace=False)
      )
      (feed_forward): PositionwiseFeedForward(
        (w_1): Linear(in_features=360, out_features=1024, bias=True)
        (w_2): Linear(in_features=1024, out_features=360, bias=True)
        (dropout): Dropout(p=0.1, inplace=False)
        (activation): ReLU()
      )
      (norm_ff): LayerNorm((360,), eps=1e-12, elementwise_affine=True)
      (norm_mha): LayerNorm((360,), eps=1e-12, elementwise_affine=True)
      (dropout): Dropout(p=0.1, inplace=False)
      (concat_linear): Sequential()
    )
    (4): EncoderLayer(
      (self_attn): MultiHeadedAttention(
        (linear_q): Linear(in_features=360, out_features=360, bias=True)
        (linear_k): Linear(in_features=360, out_features=360, bias=True)
        (linear_v): Linear(in_features=360, out_features=360, bias=True)
        (linear_out): Linear(in_features=360, out_features=360, bias=True)
        (dropout): Dropout(p=0.1, inplace=False)
      )
      (feed_forward): PositionwiseFeedForward(
        (w_1): Linear(in_features=360, out_features=1024, bias=True)
        (w_2): Linear(in_features=1024, out_features=360, bias=True)
        (dropout): Dropout(p=0.1, inplace=False)
        (activation): ReLU()
      )
      (norm_ff): LayerNorm((360,), eps=1e-12, elementwise_affine=True)
      (norm_mha): LayerNorm((360,), eps=1e-12, elementwise_affine=True)
      (dropout): Dropout(p=0.1, inplace=False)
      (concat_linear): Sequential()
    )
    (5): EncoderLayer(
      (self_attn): MultiHeadedAttention(
        (linear_q): Linear(in_features=360, out_features=360, bias=True)
        (linear_k): Linear(in_features=360, out_features=360, bias=True)
        (linear_v): Linear(in_features=360, out_features=360, bias=True)
        (linear_out): Linear(in_features=360, out_features=360, bias=True)
        (dropout): Dropout(p=0.1, inplace=False)
      )
      (feed_forward): PositionwiseFeedForward(
        (w_1): Linear(in_features=360, out_features=1024, bias=True)
        (w_2): Linear(in_features=1024, out_features=360, bias=True)
        (dropout): Dropout(p=0.1, inplace=False)
        (activation): ReLU()
      )
      (norm_ff): LayerNorm((360,), eps=1e-12, elementwise_affine=True)
      (norm_mha): LayerNorm((360,), eps=1e-12, elementwise_affine=True)
      (dropout): Dropout(p=0.1, inplace=False)
      (concat_linear): Sequential()
    )
    (6): EncoderLayer(
      (self_attn): MultiHeadedAttention(
        (linear_q): Linear(in_features=360, out_features=360, bias=True)
        (linear_k): Linear(in_features=360, out_features=360, bias=True)
        (linear_v): Linear(in_features=360, out_features=360, bias=True)
        (linear_out): Linear(in_features=360, out_features=360, bias=True)
        (dropout): Dropout(p=0.1, inplace=False)
      )
      (feed_forward): PositionwiseFeedForward(
        (w_1): Linear(in_features=360, out_features=1024, bias=True)
        (w_2): Linear(in_features=1024, out_features=360, bias=True)
        (dropout): Dropout(p=0.1, inplace=False)
        (activation): ReLU()
      )
      (norm_ff): LayerNorm((360,), eps=1e-12, elementwise_affine=True)
      (norm_mha): LayerNorm((360,), eps=1e-12, elementwise_affine=True)
      (dropout): Dropout(p=0.1, inplace=False)
      (concat_linear): Sequential()
    )
    (7): EncoderLayer(
      (self_attn): MultiHeadedAttention(
        (linear_q): Linear(in_features=360, out_features=360, bias=True)
        (linear_k): Linear(in_features=360, out_features=360, bias=True)
        (linear_v): Linear(in_features=360, out_features=360, bias=True)
        (linear_out): Linear(in_features=360, out_features=360, bias=True)
        (dropout): Dropout(p=0.1, inplace=False)
      )
      (feed_forward): PositionwiseFeedForward(
        (w_1): Linear(in_features=360, out_features=1024, bias=True)
        (w_2): Linear(in_features=1024, out_features=360, bias=True)
        (dropout): Dropout(p=0.1, inplace=False)
        (activation): ReLU()
      )
      (norm_ff): LayerNorm((360,), eps=1e-12, elementwise_affine=True)
      (norm_mha): LayerNorm((360,), eps=1e-12, elementwise_affine=True)
      (dropout): Dropout(p=0.1, inplace=False)
      (concat_linear): Sequential()
    )
    (8): EncoderLayer(
      (self_attn): MultiHeadedAttention(
        (linear_q): Linear(in_features=360, out_features=360, bias=True)
        (linear_k): Linear(in_features=360, out_features=360, bias=True)
        (linear_v): Linear(in_features=360, out_features=360, bias=True)
        (linear_out): Linear(in_features=360, out_features=360, bias=True)
        (dropout): Dropout(p=0.1, inplace=False)
      )
      (feed_forward): PositionwiseFeedForward(
        (w_1): Linear(in_features=360, out_features=1024, bias=True)
        (w_2): Linear(in_features=1024, out_features=360, bias=True)
        (dropout): Dropout(p=0.1, inplace=False)
        (activation): ReLU()
      )
      (norm_ff): LayerNorm((360,), eps=1e-12, elementwise_affine=True)
      (norm_mha): LayerNorm((360,), eps=1e-12, elementwise_affine=True)
      (dropout): Dropout(p=0.1, inplace=False)
      (concat_linear): Sequential()
    )
    (9): EncoderLayer(
      (self_attn): MultiHeadedAttention(
        (linear_q): Linear(in_features=360, out_features=360, bias=True)
        (linear_k): Linear(in_features=360, out_features=360, bias=True)
        (linear_v): Linear(in_features=360, out_features=360, bias=True)
        (linear_out): Linear(in_features=360, out_features=360, bias=True)
        (dropout): Dropout(p=0.1, inplace=False)
      )
      (feed_forward): PositionwiseFeedForward(
        (w_1): Linear(in_features=360, out_features=1024, bias=True)
        (w_2): Linear(in_features=1024, out_features=360, bias=True)
        (dropout): Dropout(p=0.1, inplace=False)
        (activation): ReLU()
      )
      (norm_ff): LayerNorm((360,), eps=1e-12, elementwise_affine=True)
      (norm_mha): LayerNorm((360,), eps=1e-12, elementwise_affine=True)
      (dropout): Dropout(p=0.1, inplace=False)
      (concat_linear): Sequential()
    )
  )
  (after_norm): LayerNorm((360,), eps=1e-12, elementwise_affine=True)
  (final_layer): Linear(in_features=360, out_features=4001, bias=True)
)
Num Model Parameters 14284849
Fri May  7 23:46:50 UTC 2021
Train Epoch: 1 [0/28539 (0%)]	Loss: 52.876720	LR: 0.000040
Train Epoch: 1 [1000/28539 (4%)]	Loss: 7.228498	LR: 0.000051
Train Epoch: 1 [2000/28539 (7%)]	Loss: 6.891717	LR: 0.000063
Train Epoch: 1 [3000/28539 (11%)]	Loss: 6.857337	LR: 0.000074
Train Epoch: 1 [4000/28539 (14%)]	Loss: 6.955213	LR: 0.000085
…
